…
LoraConfig(peft_type=<PeftType.LORA: 'LORA'>, auto_mapping=None, base_model_name_or_path='bert-large-cased', revision=None, task_type=<TaskType.SEQ_CLS: 'SEQ_CLS'>, inference_mode=False, r=4, target_modules={'key', 'value', 'query'}, lora_inhibition=0.0, lora_alpha=16, lora_dropout=0.1, fan_in_fan_out=False, bias='none', use_rslora=False, modules_to_save=None, init_lora_weights=True, layers_to_transform=None, layers_pattern=None, rank_pattern={}, alpha_pattern={}, megatron_config=None, megatron_core='megatron.core', loftq_config={}, use_dora=False, layer_replication=None)
###############
PeftModelForSequenceClassification(
  (base_model): LoraModel(
    (model): BertForSequenceClassification(
      (bert): BertModel(
        (embeddings): BertEmbeddings(
          (word_embeddings): Embedding(28996, 1024, padding_idx=0)
          (position_embeddings): Embedding(512, 1024)
          (token_type_embeddings): Embedding(2, 1024)
          (LayerNorm): LayerNorm((1024,), eps=1e-12, elementwise_affine=True)
          (dropout): Dropout(p=0.1, inplace=False)
        )
        (encoder): BertEncoder(
          (layer): ModuleList(
            (0-23): 24 x BertLayer(
              (attention): BertAttention(
                (self): BertSdpaSelfAttention(
                  (query): lora.Linear(
                    (base_layer): Linear(in_features=1024, out_features=1024, bias=True)
                    (lora_dropout): ModuleDict(
                      (default): Dropout(p=0.1, inplace=False)
                    )
                    (lora_A): ModuleDict(
                      (default): Linear(in_features=1024, out_features=4, bias=False)
                    )
                    (lora_B): ModuleDict(
                      (default): Linear(in_features=4, out_features=1024, bias=False)
                    )
                    (lora_embedding_A): ParameterDict()
                    (lora_embedding_B): ParameterDict()
                  )
                  (key): lora.Linear(
                    (base_layer): Linear(in_features=1024, out_features=1024, bias=True)
                    (lora_dropout): ModuleDict(
                      (default): Dropout(p=0.1, inplace=False)
                    )
                    (lora_A): ModuleDict(
                      (default): Linear(in_features=1024, out_features=4, bias=False)
                    )
                    (lora_B): ModuleDict(
                      (default): Linear(in_features=4, out_features=1024, bias=False)
                    )
                    (lora_embedding_A): ParameterDict()
                    (lora_embedding_B): ParameterDict()
                  )
                  (value): lora.Linear(
                    (base_layer): Linear(in_features=1024, out_features=1024, bias=True)
                    (lora_dropout): ModuleDict(
                      (default): Dropout(p=0.1, inplace=False)
                    )
                    (lora_A): ModuleDict(
                      (default): Linear(in_features=1024, out_features=4, bias=False)
                    )
                    (lora_B): ModuleDict(
                      (default): Linear(in_features=4, out_features=1024, bias=False)
                    )
                    (lora_embedding_A): ParameterDict()
                    (lora_embedding_B): ParameterDict()
                  )
                  (dropout): Dropout(p=0.1, inplace=False)
                )
                (output): BertSelfOutput(
                  (dense): Linear(in_features=1024, out_features=1024, bias=True)
                  (LayerNorm): LayerNorm((1024,), eps=1e-12, elementwise_affine=True)
                  (dropout): Dropout(p=0.1, inplace=False)
                )
              )
              (intermediate): BertIntermediate(
                (dense): Linear(in_features=1024, out_features=4096, bias=True)
                (intermediate_act_fn): GELUActivation()
              )
              (output): BertOutput(
                (dense): Linear(in_features=4096, out_features=1024, bias=True)
                (LayerNorm): LayerNorm((1024,), eps=1e-12, elementwise_affine=True)
                (dropout): Dropout(p=0.1, inplace=False)
              )
            )
          )
        )
        (pooler): BertPooler(
          (dense): Linear(in_features=1024, out_features=1024, bias=True)
          (activation): Tanh()
        )
      )
      (dropout): Dropout(p=0.1, inplace=False)
      (classifier): ModulesToSaveWrapper(
        (original_module): Linear(in_features=1024, out_features=2, bias=True)
        (modules_to_save): ModuleDict(
          (default): Linear(in_features=1024, out_features=2, bias=True)
        )
      )
    )
  )
)
08/06/2025 09:13:17 - INFO - datasets.arrow_dataset - Loading cached processed dataset at /home/kangchen/.cache/huggingface/datasets/nyu-mll___glue/rte/0.0.0/bcdcba79d07bc864c1c254ccfcedcce55bcc9a8c/cache-65d0197d43fa0ca3_*_of_00001.arrow
08/06/2025 09:13:17 - INFO - datasets.arrow_dataset - Loading cached processed dataset at /home/kangchen/.cache/huggingface/datasets/nyu-mll___glue/rte/0.0.0/bcdcba79d07bc864c1c254ccfcedcce55bcc9a8c/cache-d3f93e6a04f56c43_*_of_00001.arrow
…
